…
2026-02-26 13:55:52.397415: I tensorflow/core/platform/cpu_feature_guard.cc:182] This TensorFlow binary is optimized to use available CPU instructions in performance-critical operations.
To enable the following instructions: SSE SSE2 SSE3 SSE4.1 SSE4.2 AVX AVX2 AVX_VNNI FMA, in other operations, rebuild TensorFlow with the appropriate compiler flags.
✓ 1D-CNN architecture:
Model: "1D_CNN"
_________________________________________________________________
 Layer (type)                Output Shape              Param #   
=================================================================
 conv1d_1 (Conv1D)           (None, 122, 64)           256       
                                                                 
 maxpool_1 (MaxPooling1D)    (None, 61, 64)            0         
                                                                 
 dropout_1 (Dropout)         (None, 61, 64)            0         
                                                                 
 conv1d_2 (Conv1D)           (None, 61, 128)           24704     
                                                                 
 maxpool_2 (MaxPooling1D)    (None, 30, 128)           0         
                                                                 
 dropout_2 (Dropout)         (None, 30, 128)           0         
                                                                 
 conv1d_3 (Conv1D)           (None, 30, 256)           98560     
                                                                 
 maxpool_3 (MaxPooling1D)    (None, 15, 256)           0         
                                                                 
 dropout_3 (Dropout)         (None, 15, 256)           0         
                                                                 
 flatten (Flatten)           (None, 3840)              0         
                                                                 
 dense_1 (Dense)             (None, 128)               491648    
                                                                 
 dropout_final (Dropout)     (None, 128)               0         
                                                                 
 dense_2 (Dense)             (None, 64)                8256      
                                                                 
 output (Dense)              (None, 5)                 325       
                                                                 
=================================================================
Total params: 623749 (2.38 MB)
Trainable params: 623749 (2.38 MB)
Non-trainable params: 0 (0.00 Byte)
_________________________________________________________________

============================================================
Training 1D-CNN
============================================================
…
C:\Users\minky\Downloads\hybrid-ids-project\.venv\lib\site-packages\keras\src\engine\training.py:3000: UserWarning: You are saving your model as an HDF5 file via `model.save()`. This file format is considered legacy. We recommend using instead the native Keras format, e.g. `model.save('my_model.keras')`.
  saving_api.save_model(
✓ 1D-CNN saved to models/nslkdd\1d_cnn.h5

[LSTM] Building model...
✓ LSTM architecture:
Model: "LSTM"
_________________________________________________________________
 Layer (type)                Output Shape              Param #   
=================================================================
 lstm_1 (LSTM)               (None, 122, 128)          66560     
                                                                 
 lstm_2 (LSTM)               (None, 64)                49408     
                                                                 
 dense_1 (Dense)             (None, 64)                4160      
                                                                 
 dropout (Dropout)           (None, 64)                0         
                                                                 
 output (Dense)              (None, 5)                 325       
                                                                 
=================================================================
Total params: 120453 (470.52 KB)
Trainable params: 120453 (470.52 KB)
Non-trainable params: 0 (0.00 Byte)
_________________________________________________________________

============================================================
Training LSTM
============================================================
…
2026-02-26 17:25:14.047790: I tensorflow/core/platform/cpu_feature_guard.cc:182] This TensorFlow binary is optimized to use available CPU instructions in performance-critical operations.
To enable the following instructions: SSE SSE2 SSE3 SSE4.1 SSE4.2 AVX AVX2 AVX_VNNI FMA, in other operations, rebuild TensorFlow with the appropriate compiler flags.
✓ 1D-CNN architecture:
Model: "1D_CNN"
_________________________________________________________________
 Layer (type)                Output Shape              Param #   
=================================================================
 conv1d_1 (Conv1D)           (None, 78, 64)            256       
                                                                 
 maxpool_1 (MaxPooling1D)    (None, 39, 64)            0         
                                                                 
 dropout_1 (Dropout)         (None, 39, 64)            0         
                                                                 
 conv1d_2 (Conv1D)           (None, 39, 128)           24704     
                                                                 
 maxpool_2 (MaxPooling1D)    (None, 19, 128)           0         
                                                                 
 dropout_2 (Dropout)         (None, 19, 128)           0         
                                                                 
 conv1d_3 (Conv1D)           (None, 19, 256)           98560     
                                                                 
 maxpool_3 (MaxPooling1D)    (None, 9, 256)            0         
                                                                 
 dropout_3 (Dropout)         (None, 9, 256)            0         
                                                                 
 flatten (Flatten)           (None, 2304)              0         
                                                                 
 dense_1 (Dense)             (None, 128)               295040    
                                                                 
 dropout_final (Dropout)     (None, 128)               0         
                                                                 
 dense_2 (Dense)             (None, 64)                8256      
                                                                 
 output (Dense)              (None, 15)                975       
                                                                 
=================================================================
Total params: 427791 (1.63 MB)
Trainable params: 427791 (1.63 MB)
Non-trainable params: 0 (0.00 Byte)
_________________________________________________________________

============================================================
Training 1D-CNN
============================================================
…
C:\Users\minky\Downloads\hybrid-ids-project\.venv\lib\site-packages\keras\src\engine\training.py:3000: UserWarning: You are saving your model as an HDF5 file via `model.save()`. This file format is considered legacy. We recommend using instead the native Keras format, e.g. `model.save('my_model.keras')`.
  saving_api.save_model(
✓ 1D-CNN saved to models/cicids\1d_cnn.h5

[LSTM] Building model...
✓ LSTM architecture:
Model: "LSTM"
_________________________________________________________________
 Layer (type)                Output Shape              Param #   
=================================================================
 lstm_1 (LSTM)               (None, 78, 128)           66560     
                                                                 
 lstm_2 (LSTM)               (None, 64)                49408     
                                                                 
 dense_1 (Dense)             (None, 64)                4160      
                                                                 
 dropout (Dropout)           (None, 64)                0         
                                                                 
 output (Dense)              (None, 15)                975       
                                                                 
=================================================================
Total params: 121103 (473.06 KB)
Trainable params: 121103 (473.06 KB)
Non-trainable params: 0 (0.00 Byte)
_________________________________________________________________

============================================================
Training LSTM
============================================================
…
